…
 'test_fold_index': None,
 'train_data_size': None,
 'undirected': False,
 'use_input_features': False,
 'val_fold_index': None,
 'warmup_epochs': 2.0,
 'weights_ffn_num_layers': 2}
Setting molecule featurization parameters to default.
Loading data
Number of tasks = 1
Fold 0
Splitting data with seed 0
Total size = 924,544 | train size = 739,635 | val size = 92,454 | test size = 92,455
Building model 0
MoleculeModel(
  (multiclass_softmax): Softmax(dim=2)
  (encoder): MPN(
    (encoder): ModuleList(
      (0): MPNEncoder(
        (dropout): Dropout(p=0.0, inplace=False)
        (act_func): ReLU()
        (W_i): Linear(in_features=193, out_features=300, bias=False)
        (W_h): Linear(in_features=300, out_features=300, bias=False)
        (W_o): Linear(in_features=465, out_features=300, bias=True)
      )
    )
  )
  (readout): Sequential(
    (0): Dropout(p=0.0, inplace=False)
    (1): Linear(in_features=300, out_features=300, bias=True)
    (2): ReLU()
    (3): Dropout(p=0.0, inplace=False)
    (4): Linear(in_features=300, out_features=2702, bias=True)
  )
)
Number of parameters = 1,191,602
Moving model to cuda
Epoch 0
Loss = 7.7773e+00, PNorm = 41.6556, GNorm = 1.8671, lr_0 = 1.0033e-04
Loss = 7.5359e+00, PNorm = 41.6787, GNorm = 2.7193, lr_0 = 1.0064e-04
Loss = 7.0401e+00, PNorm = 41.7177, GNorm = 4.8718, lr_0 = 1.0094e-04
Loss = 6.1593e+00, PNorm = 41.7758, GNorm = 5.2680, lr_0 = 1.0125e-04
Loss = 5.2803e+00, PNorm = 41.8411, GNorm = 14.0453, lr_0 = 1.0155e-04
…
 'test_fold_index': None,
 'train_data_size': None,
 'undirected': False,
 'use_input_features': False,
 'val_fold_index': None,
 'warmup_epochs': 2.0,
 'weights_ffn_num_layers': 2}
Setting molecule featurization parameters to default.
Loading data
Number of tasks = 1
Fold 0
Splitting data with seed 0
Total size = 13,020 | train size = 10,416 | val size = 1,302 | test size = 1,302
Building model 0
MoleculeModel(
  (multiclass_softmax): Softmax(dim=2)
  (encoder): MPN(
    (encoder): ModuleList(
      (0): MPNEncoder(
        (dropout): Dropout(p=0.0, inplace=False)
        (act_func): ReLU()
        (W_i): Linear(in_features=193, out_features=300, bias=False)
        (W_h): Linear(in_features=300, out_features=300, bias=False)
        (W_o): Linear(in_features=465, out_features=300, bias=True)
      )
    )
  )
  (readout): Sequential(
    (0): Dropout(p=0.0, inplace=False)
    (1): Linear(in_features=300, out_features=300, bias=True)
    (2): ReLU()
    (3): Dropout(p=0.0, inplace=False)
    (4): Linear(in_features=300, out_features=150, bias=True)
  )
)
Number of parameters = 423,450
Moving model to cuda
Epoch 0
